app/src/main/assets/model_16K_LR.tflite (tflite, 133488 bytes, 16 tensors)

CNN/conv2d/BiasAdd/ReadVariableOp f4 [64]
000000 2e 92 05 3d 00 ec 0c 3e b2 bf 21 3e 66 4e 19 be
       0.03261011 0.13761902 0.15795782 -0.14971313
000010 12 91 6f b9 c3 2b 2b 3e f9 03 c1 3d da 03 06 3e
       -0.00022846859 0.16715913 0.09424586 0.13087407
000020 29 08 8d bd ab 83 e9 3c 96 d9 07 3d 95 e7 fc 3d
       -0.06886322 0.028505167 0.03316649 0.12348858
000030 b9 e0 c4 3d ab fc dc 3d de a0 b1 3d 34 c9 80 3e
       0.09613175 0.1079038 0.08673261 0.25153506
000040 0d d2 a5 bc 3e ec e3 3d 6a 91 4e 3d 93 cc d9 3d
       -0.020241762 0.11129044 0.050431646 0.106347226
000050 22 c3 6f bd dd f2 1d bb bd fc e3 3d 1e 5c 27 3d
       -0.058535703 -0.0024101057 0.111321904 0.040859334
000060 48 a8 ad bd da 63 97 ba ed 9c 46 3d f0 7e 04 3e
       -0.08479363 -0.0011550144 0.0484895 0.12939048
000070 49 f4 da 3a e7 39 4e be ef ab c3 bd e4 87 d7 3c
       0.0016704883 -0.20139275 -0.09554278 0.026309915
000080 25 b4 2b 3d 85 c8 8e 3d d7 8a 68 3d 3e 50 76 be
       0.041919846 0.0697184 0.056773033 -0.24054047
000090 20 9c 3e bc 8b 7f 27 bb 12 c4 f2 3c 3d 3c 84 3c
       -0.011633903 -0.00255582 0.02963451 0.016142005
0000a0 9f 67 2b be 07 81 35 3e d7 c9 5f 3d 4f 37 79 bd
       -0.16738747 0.17725001 0.05463585 -0.060843762
0000b0 e0 e8 4e 3c 68 51 c1 3d 32 fc c8 bc 61 c6 2f bd
       0.012628764 0.09439355 -0.024534319 -0.0429138
0000c0 ee 04 12 3d 9f d6 9b 3d 9d c3 2f 3d 47 f6 0f be
       0.035649233 0.07609295 0.04291116 -0.14058791
0000d0 a5 65 54 3d 83 db 30 3b 08 56 90 3d 03 7c 1c bc
       0.05185475 0.0026986308 0.07047659 -0.009551051
0000e0 dd 69 10 3e d1 7a 05 bd 23 af d5 3d 27 84 92 3d
       0.14102884 -0.03258783 0.10433795 0.07154112
0000f0 41 5b 96 3a eb 44 13 bc 4a 58 59 3d cf 4a 9f 3d
       0.0011471288 -0.008988599 0.053062715 0.077779405

CNN/conv2d_1/BiasAdd/ReadVariableOp f4 [32]
000000 74 0b d2 3b fa 8c b1 3d ed 4a 74 bb c4 ea 3b bb
       0.0064100567 0.08669467 -0.0037276105 -0.0028673867
000010 17 92 0a 3e f2 7c 8b 3b 93 95 37 bd f1 49 d5 3d
       0.13532291 0.004256838 -0.04482038 0.10414494
000020 5b 33 82 bc 19 12 8d bc e9 b0 82 3d 9c af 8e 3c
       -0.015893629 -0.017220544 0.06381399 0.017417721
000030 21 01 3f bd 21 8e e8 bc 98 21 c5 3d 67 92 df 3d
       -0.046631936 -0.028388085 0.09625548 0.10916596
000040 d0 cc 9d bb bb b2 98 3d 63 e2 cb bd dd fe 86 bd
       -0.0048156753 0.07455965 -0.09955289 -0.0659158
000050 2b b9 89 3a e0 51 1b 3d 33 f6 29 bd 21 7b 98 ba
       0.0010507455 0.03791988 -0.04149456 -0.0011633375
000060 25 69 e7 3d db 19 56 3d 71 45 b4 bd 1d 29 7c 3d
       0.112993516 0.05227075 -0.088023074 0.061562646
000070 cb 84 f9 3b a6 df d2 3d 14 1a e2 3c d3 d9 ff 3c
       0.007614707 0.10296564 0.027600326 0.031231796

CNN/conv2d_2/BiasAdd/ReadVariableOp f4 [32]
000000 f0 d4 85 bc 67 7a 45 bd d2 51 80 bd 13 4a 61 bd
       -0.016336888 -0.048212435 -0.06265606 -0.055002283
000010 87 42 90 bd fd 41 f6 3c a3 ab 66 3c c1 ca 94 bc
       -0.07043939 0.030060763 0.014079007 -0.018163087
000020 e6 c5 1c bc 54 f9 76 bd 1e 57 80 bc d7 58 5f bd
       -0.009568667 -0.06029637 -0.01566654 -0.054528084
000030 63 c7 2a bb a8 d2 06 be 2e 37 20 bc 2b 19 d7 bd
       -0.0026058785 -0.13166296 -0.009778781 -0.10502847
000040 0a 2f 4e bd f1 3c 98 bd 44 00 93 bb 5c c6 5f bc
       -0.05033783 -0.07433499 -0.0044861156 -0.013658132
000050 25 95 11 3c a0 05 e9 bb 54 40 fb 3c 6e 05 67 bd
       0.0088856565 -0.0071112663 0.030670322 -0.056401663
000060 ea f3 67 bd ec bb ae 3d 52 ce 9e bd f3 5e bd bd
       -0.0566291 0.08531937 -0.07754196 -0.09246626
000070 fd cb 0a 3d 1d 66 60 3d 40 bb fd bc ec 63 6c 3d
       0.033885945 0.054784883 -0.030973077 0.05771248

CNN/conv2d/Conv2D f4 [64, 3, 3, 1]
000000 f8 68 79 bd 1a 1c b0 bc 9e b2 9b bb a2 0d e6 3c
       -0.06089112 -0.021497775 -0.0047515174 0.028082673
000010 f1 cc b6 bd f3 ac db bd 9b 25 60 3c b6 25 93 3d
       -0.08925808 -0.10726347 0.013680841 0.07184927
000020 6d 5f a3 3d 9f 1d 1d 3d 2a e1 0f bd 89 ca 9f bd
       0.079771854 0.038358327 -0.035126843 -0.078023024
000030 6b 42 fe 3c a9 91 af bd a4 91 82 3d a2 75 a0 bd
       0.03103753 -0.08572704 0.06375435 -0.07834937
000040 66 25 95 3d cf 78 04 3d 50 42 10 3d 70 a3 2a bd
       0.07282524 0.032341775 0.03521949 -0.041659772
000050 5b 26 eb bd f2 a7 0a 3d cd 9d ca 3c c1 d4 1b 3c
       -0.11481925 0.03385157 0.024733448 0.009511174
000060 b4 6e f6 bc 2d 77 cc bd eb 2f e9 3c 60 f8 64 bd
       -0.030082084 -0.099836685 0.028465232 -0.05590093
000070 09 2c 81 bb 76 9d 5f bd a5 1e b0 3c f8 9d 4c bc
       -0.003942017 -0.054593526 0.021498987 -0.012488835
000080 3f 67 5d 3d bf fa ec 3c 1b df 1d 3d 8e c7 95 3c
       0.05405354 0.028928159 0.038542848 0.018283632
000090 fe 2d 96 bd 2c 4a 33 be d4 88 c3 bc 50 44 d0 3c
       -0.07332991 -0.17508763 -0.023868956 0.025423199
0000a0 d9 b7 1e be 48 f3 3a 3a 78 15 0a 3d 2a 1f 5d bd
       -0.1549982 0.00071315886 0.03371188 -0.0539848
0000b0 f6 6d d1 bd 51 b4 1b 3d 1f f8 20 3d dc 55 0a 3d
       -0.102260515 0.03801376 0.039299127 0.033773288
0000c0 26 1b 8e 3c 00 94 bc 3d 85 e8 a4 bd 7b cd f3 3d
       0.01734693 0.09207916 -0.08052162 0.11904427
0000d0 d3 17 65 3c 96 c6 84 3d 4c d1 df bb 2e 70 31 bd
       0.013982731 0.0648319 -0.00683037 -0.043319874
0000e0 71 ee d5 3d c1 81 72 3d 20 4d 31 bd 81 53 83 bb
       0.1044587 0.059205774 -0.043286443 -0.004007757
0000f0 89 51 86 3d 7b 36 9d bd 2d aa 0a 3d ab fb 62 3d
       0.0655852 -0.07676407 0.0338537 0.05541579
000100 38 2a 85 bd b2 60 a5 bc 80 80 c0 3d c9 86 0a 3d
       -0.06502193 -0.02018771 0.093995094 0.033819947
000110 46 f5 25 bd 72 7f 63 bd 58 27 96 3d af b2 4c 3d
       -0.040517114 -0.055541463 0.07331723 0.049975093
000120 58 4e ac 3d 33 45 6d 3d ec 7b 8b bd e6 5d 11 3c
       0.084133804 0.05792732 -0.068107456 0.008872485
000130 2d ab 95 bd 21 77 a8 3c 45 3f 68 3c c8 ff 88 3c
       -0.0730804 0.020564618 0.014175241 0.016723529
000140 52 2c 82 3d 04 30 77 bd ab e1 87 3d 13 dd ea bb
       0.0635611 -0.060348526 0.066348396 -0.0071674674
000150 a0 9b 1e bd 1b 52 bb bc ad 43 c8 bc 60 20 bb 3d
       -0.038722634 -0.0228663 -0.024446333 0.091370344
000160 c5 04 38 bd 40 14 e1 3c 1f 5f 56 3d 4e 44 0c 3c
       -0.044926424 0.027475476 0.05233681 0.008561207
000170 cc 75 25 bd fc 08 31 bd 12 87 97 3d 38 9e f8 3c
       -0.040395543 -0.04322146 0.073988095 0.030348882
000180 34 34 91 bc 5d a0 79 bd e2 2c 67 3d 39 eb 15 3d
       -0.017725088 -0.06094395 0.056439288 0.03660128
000190 de 0d 87 3c 42 b7 a3 bd 20 81 43 bd 0b dd 5d bd
       0.016486105 -0.07993938 -0.047730565 -0.05416588
0001a0 ea 92 d4 3d b1 3c 9e 3d c1 74 0c 3d b8 4d 65 bd
       0.10379584 0.0772642 0.034291033 -0.05598232
0001b0 9e 47 cd 3d 7a 52 a1 ba 0f ca 57 3d 20 fb 6a bd
       0.100234255 -0.0012307905 0.052682932 -0.057368398
0001c0 e7 4e 48 bc 17 23 49 bb cb 1e c7 3d ec 8c 9d 3d
       -0.012225843 -0.0030691081 0.0972267 0.07692894
0001d0 c1 3c 5e 3d fd b4 d7 bc 09 47 a4 3d df ae a4 bc
       0.05425716 -0.02633142 0.080213614 -0.020102916
0001e0 25 bd 08 bd 33 b5 a3 bd df 49 d9 3d 5d 00 b2 3d
       -0.033383507 -0.079935454 0.10609793 0.086914755
0001f0 79 ce a1 bd 89 1a 1c bd 2b c8 7d bb 9d af 1d bd
       -0.0790071 -0.038111243 -0.0038724046 -0.038497556
000200 9b 04 59 bd 35 e1 0a bd 26 9a 53 bc 98 c5 0d 3d
       -0.052982908 -0.03390618 -0.01291517 0.03461227
000210 bf 97 87 3d 2d aa 48 3d a4 9c b9 3d 9e ab 4f bd
       0.0662074 0.048990417 0.0906308 -0.050700776
000220 05 1c 9d bd 93 9b 7b 3c 99 ac 9a bd c1 b7 0e be
       -0.0767136 0.015356916 -0.07552452 -0.13937284
000230 83 bb cb bd e7 14 b6 3c b1 d0 84 bd c2 32 08 3c
       -0.099478744 0.022226764 -0.06485117 0.008312883
000240 86 0c 4b 3c ae 7a 74 3b e7 1c d2 3d ff aa 9c bc
       0.012393123 0.0037304568 0.10259419 -0.019124506
000250 81 9f b9 3c bd c7 3a 3d 0b 6b 21 bd 7c 84 b1 bd
       0.022659065 0.04560064 -0.039408725 -0.086678475
000260 21 46 02 be 13 32 88 3d a5 48 73 bd b4 73 ad bd
       -0.12722065 0.06650176 -0.05939545 -0.08469334
000270 26 86 81 bc 0b 91 27 bd cb 65 a9 bd a0 35 f9 bc
       -0.015811037 -0.040909808 -0.082713686 -0.030421078
000280 b4 30 99 3d 89 43 bc bd 4f 67 8e bd 17 0b d4 bd
       0.074799925 -0.09192569 -0.06953298 -0.10353678
000290 60 9c 22 3d d6 0e 5b bd ac 86 44 3d b5 15 e2 3c
       0.039699912 -0.053480946 0.047979996 0.027598241
0002a0 f9 ce da bc 8a 82 f4 bc 95 ed 9f 3d 57 22 a4 bc
       -0.02671002 -0.029847402 0.07808987 -0.020035906
0002b0 a4 63 d0 3d 43 6d 96 3d 26 fe 2f 3d e8 41 67 3c
       0.10175255 0.07345059 0.042966984 0.014114834
0002c0 63 09 63 3d 5e 7e 3d 3d d7 4a be bd 98 31 bd bc
       0.055428874 0.04626309 -0.09291618 -0.023094937
0002d0 c7 c6 3c 3d 74 aa 7b bd 7c 00 c1 3d 14 9f 9f bd
       0.046088006 -0.061441854 0.094239205 -0.077940136
0002e0 c7 07 2a bd 3d 51 3c bd 01 d0 a6 bd 1f 9b 90 bc
       -0.041511323 -0.045975912 -0.08145142 -0.017652093
0002f0 e7 a8 9d bd 95 e6 f0 bd 34 4b 00 3d cc 5c fc 3c
       -0.07698231 -0.1176273 0.03132172 0.030805968
000300 3d d8 ed bc 5f db 11 bc ea 85 64 3c a8 0a 0e 3d
       -0.029033775 -0.0089024 0.013947943 0.03467813
000310 2b c5 3c 3d 89 40 ca 38 20 4a 23 bd 0a 88 45 bd
       0.04608647 9.644131e-05 -0.039865613 -0.04822544
000320 14 fd e4 3c 59 29 b8 3d fc 1c ab bd b2 42 50 3d
       0.027952708 0.089922614 -0.08355138 0.050844856
000330 1f 72 35 3d e2 eb 1d 3d 54 a9 2e bd 7f 9e dd 3d
       0.044298287 0.038555034 -0.042641953 0.10821246
000340 3f 06 cd 3b d4 f6 a4 bc af 05 68 3d 8d 0d 01 3d
       0.006256848 -0.020137228 0.056646045 0.031507064
000350 b5 87 05 bd f6 46 c2 3c 67 05 b6 bd 10 95 92 bd
       -0.032600123 0.023715477 -0.08887749 -0.07157338
000360 3b 05 2c bd 2e 69 63 bd 87 11 d2 bd 61 7b 3a bc
       -0.041997176 -0.05552023 -0.10257249 -0.011381955
000370 c8 89 2c bd 03 cb ce 3c 64 f6 ec 3c 74 68 b4 3d
       -0.042123586 0.025243288 0.028926082 0.08808985
000380 b2 7b 29 3c 13 6e 88 bb 2a 27 5a bd dd b2 4a bd
       0.010344433 -0.0041635125 -0.053260006 -0.049486984
000390 94 c8 22 bd 2a 84 2a bd 62 d3 b8 3d 64 f2 f9 3c
       -0.039742067 -0.041629948 0.09024693 0.030511089
0003a0 de 07 9b 3d de f1 bf ba 60 68 ce 3d f4 14 cc 3b
       0.0756986 -0.0014644226 0.10078502 0.0062280837
0003b0 5d 7a 79 3c 86 eb 6f 3d 10 ce 5f 3c 80 1c 62 bd
       0.015226928 0.058574222 0.013659969 -0.05520296
0003c0 dc 45 0a be b9 9b 2d 3d 23 5c a4 3c 7b 4a 23 3b
       -0.13503212 0.042384837 0.020063465 0.002491622
0003d0 9d 07 1a bd 9e 2c cc bc 59 91 2e bd 21 2a db 3d
       -0.037604917 -0.024923619 -0.042619083 0.10701395
0003e0 64 92 65 3d e0 77 8f bc 10 a3 04 3e e3 21 c9 3c
       0.056047812 -0.017513216 0.12952828 0.024552291
0003f0 d3 08 88 bd c1 7a a4 3d 2a 03 af bc 90 a2 ff 3c
       -0.06642308 0.08031226 -0.021363813 0.031205446

CNN/conv2d_1/Conv2D f4 [32, 3, 3, 64]
000000 ce 9b 19 3d cf 12 5c bd 78 20 31 3d 29 d4 14 bd
       0.037502103 -0.053728875 0.043243855 -0.036335144
000010 3a a1 a5 3d cb 70 66 bd f6 bf 1d 3c 84 e6 f8 3c
       0.08087392 -0.05625991 0.009628287 0.030383356
000020 56 f9 81 bd 86 0a 1a bd 58 00 2d 3d fd d7 a4 bc
       -0.06346385 -0.037607692 0.042236656 -0.020122522
000030 0b 08 0b 3d c4 c9 77 bd ae e3 15 3d 6e b8 cb bc
       0.033943217 -0.060495153 0.036594085 -0.024868216
000040 ad 42 07 ba 11 a8 84 3b 09 25 42 3d bf f8 43 bd
       -0.0005159777 0.0040483554 0.0473986 -0.047844645
000050 c8 92 cc 3c 7a 72 90 3c d8 d8 37 bd c6 8d b2 bb
       0.024972335 0.017632712 -0.044884533 -0.0054490296
000060 29 52 ce bd 5d 7f 0f bd a1 0e b3 3b f4 87 4c 3c
       -0.100742646 -0.035033572 0.0054643904 0.012483586
000070 dc c6 ea bd 96 64 87 bd ec 9b 46 bd 36 1b 6c 3c
       -0.11463711 -0.06610982 -0.048488542 0.0144107845
000080 0a b0 3d bd 0e 84 6b ba 45 48 3a 3d f6 8c 65 3d
       -0.046310462 -0.0008984216 0.045479078 0.056042634
000090 c5 4f 03 3c 5b 01 d6 bc f2 c5 d7 3c 77 39 1e bd
       0.008014624 -0.026123693 0.026339505 -0.03862902
0000a0 2d a6 bd 3c 6c ce bc bd c6 0d b8 3d e5 20 bc bd
       0.023150528 -0.09219059 0.08987002 -0.09185962
0000b0 fb 82 6a bc 91 6c 6f 3d 1a d1 95 bd 53 b6 13 bd
       -0.014313455 0.058453146 -0.073152736 -0.03606255
0000c0 17 41 2b 3d 9c 89 db 3d 20 6a ee bc 90 a4 38 bd
       0.04181012 0.10719606 -0.029103339 -0.045078814
0000d0 76 81 52 bd 78 18 a1 3d 82 27 e1 3c 97 3a 7a 3d
       -0.051392995 0.07865995 0.02748466 0.061091032
0000e0 c8 81 39 bd 80 01 d8 bc ac 7a 8c 3c 94 64 29 bd
       -0.045289785 -0.026367903 0.017148338 -0.041355684
0000f0 b3 13 b9 3c 9c 5b 5a bd 49 23 73 3d a1 52 a9 bd
       0.022592401 -0.05331002 0.059359822 -0.08267713
000100 9b 1b 2b bd 33 2f 83 ba 56 10 34 bc 49 b8 89 3d
       -0.041774374 -0.0010008573 -0.010990223 0.06724603
000110 06 71 0e 3d 85 6e 6b bd 3d 12 3d 3d 9b 3d 7e 3d
       0.034775756 -0.057478447 0.04615997 0.06207047
000120 17 22 62 3d 5d 68 90 bc f7 73 51 3d 72 2a 94 3d
       0.05520829 -0.01762789 0.051135983 0.07234658
000130 8d 87 51 3c af 38 85 bc cf b4 18 bc 14 0e 71 bd
       0.0127886655 -0.01626238 -0.009320452 -0.058851317
000140 a4 50 b7 3c b0 12 83 3d d4 6c 2c bd c8 c2 cb 3c
       0.02237732 0.06400049 -0.042095974 0.024873152
000150 43 68 80 bd 8c 44 52 3b db 5e d4 bc 04 ee 52 3d
       -0.06269886 0.0032084314 -0.025924137 0.05149652
000160 cb 4e 34 3b 8d 43 74 bd c6 95 18 bd 48 46 a5 3c
       0.0027512785 -0.059634734 -0.03725221 0.020175114
000170 9f af 8d 3d 16 f5 29 bb a2 3e 47 3c 37 17 ff 3c
       0.06918263 -0.0025933436 0.012160929 0.031139
000180 a1 5a 0c bd ac e1 71 3c 8a 7c 9b 3c 7e d3 4d bb
       -0.034266118 0.014763277 0.018980283 -0.0031406577
000190 63 3a 8c 3b f4 62 0e 3d 4f 74 a5 bc b4 53 20 bc
       0.004279421 0.034762338 -0.020197062 -0.009785581
0001a0 47 61 60 bd 62 a2 77 3d 08 c1 69 bc 01 20 eb 3c
       -0.05478027 0.060457595 -0.014267214 0.028701784
0001b0 85 8b da bd 69 ec c5 3b 2c 2d 8b 3d ba 12 8e bd
       -0.106711425 0.006040145 0.06795725 -0.069371656
0001c0 8f 83 74 bb 27 28 a0 3d 8b 47 a5 bc 62 2c fc bb
       -0.003730986 0.078201585 -0.020175716 -0.0076957205
0001d0 f5 2a 9c 3c d2 37 b2 bd 26 f1 49 bd fd 8f b9 3c
       0.019063452 -0.08702053 -0.049302243 0.022651667
0001e0 84 69 8f 3d 31 28 c9 bc 43 11 ce 39 59 fc e5 3d
       0.070025474 -0.024555298 0.00039304243 0.11229772
0001f0 7b c6 3d 3d a7 81 06 3d d0 ce 01 3d fd bb 06 3d
       0.046331864 0.03283849 0.031691372 0.032894123
000200 4a 30 9c ba a3 44 1f 3b 1c c3 7c bd 49 2b 33 bd
       -0.0011916247 0.0024302385 -0.06170951 -0.04374245
000210 9a 53 03 bc 4e 96 88 bc 89 74 83 bc 39 1d 1c 3d
       -0.008015538 -0.016673233 -0.01604678 0.038113806
000220 98 f1 97 3c 25 92 6b bd 06 ab c5 bc 92 c0 b6 3c
       0.018547818 -0.05751242 -0.024129402 0.022308622
000230 0a 22 65 bb 31 f0 19 3b b8 ba 5e bd 7c 4e 97 39
       -0.0034962916 0.0023489113 -0.054377288 0.0002885944
000240 1d 9a 07 bc e6 3f 22 bd 8a cf 96 3c e2 a8 04 bd
       -0.00827649 -0.03961172 0.01840951 -0.03238762
000250 37 6f 39 3d b8 e5 8b 3c 08 b2 d4 3c e2 83 1d bd
       0.04527208 0.017077312 0.025963798 -0.03845585
000260 fa 3e 3d 3d de bb b8 3a d6 c8 22 bc d3 50 05 3b
       0.046202637 0.0014094075 -0.009935578 0.0020342364
000270 bf e3 fd bc 03 cc 33 bd 97 7b 37 bd ca a1 82 bc
       -0.030992387 -0.043895733 -0.0447956 -0.015946288
000280 5e 36 b1 bc 76 20 ce 3c 87 59 5a bd 3c 71 4a bb
       -0.02163237 0.025161963 -0.053308036 -0.0030890247
000290 ba 30 3d 3d a9 cb 26 3c 3a f1 6d bd a9 f1 d5 bc
       0.046189047 0.010180392 -0.05809138 -0.02611621
0002a0 83 0a b9 bc 3a 73 8e bc 5a e2 0b 3d e5 c9 cb bd
       -0.02258802 -0.017388929 0.034151413 -0.09950618
0002b0 fe 1b 0f 3c d0 42 46 3d fd cb 9d bd 30 ee ee bd
       0.008734701 0.04840356 -0.07704923 -0.116665244
0002c0 11 a5 9b bb ea 77 61 3d c1 09 c6 3c 32 37 12 bd
       -0.004749902 0.055046 0.024174573 -0.03569717
0002d0 1f b9 64 3c d7 9d 34 3d 28 fc 01 3b 28 1a 0d 3d
       0.013960152 0.04409584 0.0019834135 0.034448773
0002e0 85 52 ec 3c 6b 2a 30 bd d8 2b 16 3d 5e b7 df 3c
       0.028847942 -0.043009203 0.036662906 0.027309116
0002f0 cc 15 15 bd 20 08 30 3b d1 9e 2c bd c2 0a 76 3d
       -0.03639774 0.0026860312 -0.042143647 0.060068853
000300 02 46 81 bd 94 37 8a bd e9 87 a2 bc 28 46 52 ba
       -0.06312181 -0.06748882 -0.019840198 -0.00080213184
000310 50 64 19 3d a3 ae 8f bd 82 01 3f 3d 94 ca d2 bc
       0.03744918 -0.07015731 0.046632297 -0.025731362
000320 88 20 8f 3d 8f 78 01 bd da 3c 12 bb c7 68 a8 bd
       0.06988627 -0.031609114 -0.0022314102 -0.0822311
000330 04 31 1c bd ce 66 15 bd fc 0c 88 bc 43 ea 1a 3d
       -0.038132682 -0.036474995 -0.016607754 0.037821066
000340 7c c7 3b 3c 59 25 e1 3c 1c 07 05 3c a0 e7 4f 3c
       0.011461135 0.027483629 0.008119371 0.012689501
000350 41 1c 2c 3d 50 49 b0 bc 6f 2c 51 bb 20 b9 18 3d
       0.042019133 -0.021519333 -0.0031917354 0.037285924
000360 63 7a 4b bd d3 ac 6d bd 24 97 01 3d 1c 9b 3d 3d
       -0.049677264 -0.058026146 0.03163828 0.046290502
000370 a8 87 0d bd f9 fe 74 3d d7 87 7f 3d f2 de 31 3b
       -0.0345532 0.059813473 0.062385406 0.0027140942
000380 b9 3e e7 bd 63 4d e7 3c 17 df 00 bd 04 22 18 bd
       -0.1129126 0.028235143 -0.031462755 -0.037141815
000390 ce 91 af 3c 8c 04 f2 bb 41 c8 e7 3c d8 72 2b bc
       0.02143183 -0.007385796 0.02829373 -0.010464393
0003a0 d1 5b 6b 3d 77 83 f3 3c c8 5e 98 bc f8 14 e7 bc
       0.05746061 0.029725773 -0.018599883 -0.02820824
0003b0 d5 97 d6 39 2f 04 da bc 44 c5 ca bc 14 ff 90 bd
       0.00040930384 -0.026613323 -0.024752267 -0.07079902
0003c0 88 22 96 3d b3 f8 58 3d 9c 15 83 bc 7c ac 3e bd
       0.07330805 0.052971553 -0.016001515 -0.046551213
0003d0 d3 9d 85 3a 84 b4 05 3e 05 a1 08 3d ce 2e ce bb
       0.001019413 0.13057142 0.033356685 -0.0062922006
0003e0 b9 89 f8 3c 93 fe dc 3c 97 25 c9 bb 70 c5 c0 3b
       0.030339109 0.02697686 -0.0061385143 0.0058829114
0003f0 68 0d 7d 3d 26 e6 a2 bd c4 a5 6e 3d 3c e7 2d 3c
       0.061780363 -0.079540536 0.058263555 0.010614213

CNN/conv2d_2/Conv2D f4 [32, 2, 2, 32]
000000 ad 79 61 be 10 11 8f 3c 8d c5 66 bd e8 cc 81 bd
       -0.22019072 0.01746419 -0.056340743 -0.06337911
000010 d6 d4 5b 3d 0a 3b 3b 3e 47 7a 82 bd 3d e4 f9 bc
       0.053669773 0.1828424 -0.06370979 -0.03050434
000020 64 1e 53 bd c5 de cc 3c 97 23 8f 3c 15 b7 ab bd
       -0.051542655 0.025008569 0.017473025 -0.083845295
000030 14 c8 e1 3c c7 71 1e 3c 6c 89 77 bb 12 bc 22 bc
       0.027561225 0.009670681 -0.0037771119 -0.009932535
000040 36 54 04 3e f1 5a bb 3d 67 f0 0d 3e 00 ee 83 3d
       0.12922749 0.09148205 0.13861237 0.06441879
000050 a9 d6 82 bd 15 13 c9 3c f4 d3 88 3c 52 3b e5 bc
       -0.063885994 0.024545232 0.01670263 -0.027982388
000060 a1 04 8f bd 5c e7 cd bc 8e ad 4c 3d a9 ec 08 bd
       -0.06983305 -0.025134735 0.049970202 -0.03342882
000070 99 cd a3 bd 54 bb fd 3d b9 ae 53 bd 48 2e fe bd
       -0.07998199 0.12389246 -0.0516803 -0.12411171
000080 bd db 1c bd 27 35 3c 3d 3e 89 20 3d 0d 7c 8c bd
       -0.038295496 0.045949128 0.039193384 -0.06859598
000090 cb fe 82 bc 11 1d f7 bc 55 37 98 bc 81 ea cc bd
       -0.015990635 -0.030165227 -0.018581072 -0.100056656
0000a0 b6 07 8e bd f9 d3 15 3e 62 e9 89 3d 99 52 df 3c
       -0.069350645 0.14631642 0.06733967 0.027261065
0000b0 ed 0e 20 be c1 0c a4 3d 49 96 67 bd ec 6a 6f ba
       -0.15630694 0.08010245 -0.056539807 -0.0009133059
0000c0 f3 40 09 3d f0 7e 59 bd 91 c1 07 bc de c9 a2 3d
       0.033509206 -0.053099573 -0.008285896 0.07948659
0000d0 34 72 50 3d 24 76 f0 bd ef d5 4c bc fc 7c 23 bd
       0.050890163 -0.117412835 -0.012502178 -0.039914116
0000e0 ca 36 ab 3b 30 06 15 be fc 72 03 3e 1a 2c 1d 3c
       0.005225037 -0.14553142 0.12836832 0.009593034
0000f0 f4 55 ef bc 69 c6 a8 39 a2 bb c7 3d 79 bc 7b 3d
       -0.02921579 0.00032191284 0.09752585 0.06145904
000100 41 bd 50 be 9b 84 4d bb b7 17 a3 ba a0 05 84 39
       -0.20384695 -0.0031359557 -0.0012442981 0.00025181193
000110 43 a3 97 3d 1f dd b3 3d cb b1 5c 3d a3 89 2c 3d
       0.074041866 0.0878241 0.053880494 0.042123448
000120 4a 33 c1 bd e2 78 c5 3d 32 b6 a0 bd 37 be 6c bc
       -0.09433611 0.09642197 -0.07847251 -0.014449648
000130 bd 5f 62 bd 78 11 62 3b f3 8f b8 bd e0 36 d5 3c
       -0.055267084 0.0034495275 -0.09011831 0.026027143
000140 1a 75 ea 3c 31 a3 8a bd 4c 03 05 3e 6a 8a d6 3c
       0.028620292 -0.067694075 0.12989539 0.026189048
000150 51 1f 40 bd d0 52 91 3d 94 d4 82 bc 03 85 99 bd
       -0.046904866 0.07095873 -0.015970506 -0.07496073
000160 f9 57 ea bc c8 c2 ec bd 20 bb ba 3c 7c 77 c6 3d
       -0.028606402 -0.11560589 0.022794306 0.096907586
000170 30 ed b9 3a a6 6e d8 3c 56 0e 61 bd 1c 6d 87 3d
       0.0014185067 0.026419949 -0.054945312 0.06612608
000180 03 1d 11 3c c2 10 6d bd 0e f2 29 bd 02 7a 0b be
       0.008857015 -0.05787731 -0.041490607 -0.13620761
000190 11 c6 d6 bb 26 c0 b9 bd e8 ff 11 bd 67 76 12 bd
       -0.006554373 -0.090698525 -0.03564444 -0.03575745
0001a0 f6 f8 36 3d 90 9f fa bc c8 7f 68 bd 18 58 bc 3c
       0.04467102 -0.030593663 -0.056762487 0.022991225
0001b0 1d a8 f4 bd bd dd 94 3d ed ce df bb ea d5 0a be
       -0.119461276 0.07268856 -0.0068300874 -0.13558164
0001c0 27 f0 20 3d a3 e7 ae bc 44 3b 81 bc 0d a4 ce 3d
       0.039291527 -0.021350687 -0.01577533 0.10089884
0001d0 25 91 a6 bd cf 7e 89 bd be 56 bc bd c4 b1 7b bc
       -0.08133153 -0.0671364 -0.09196232 -0.015362207
0001e0 77 71 65 3d df 8c c9 3a 2f 2a 28 3e 04 70 c6 bd
       0.05601641 0.0015377066 0.16422342 -0.09689334
0001f0 99 f7 6f bc cd 17 4b 3d c1 4b 8c bd a0 f6 04 3d
       -0.014646434 0.049583245 -0.068503864 0.032461762
000200 6e 00 3e bd 9e 15 0c bd a7 8d 15 bd b4 53 b9 bd
       -0.04638713 -0.034200303 -0.036512043 -0.09049168
000210 a5 82 11 bd f4 b8 55 bd 65 82 29 bd fa 8a 2d bc
       -0.035524983 -0.05217834 -0.04138412 -0.010592217
000220 a7 fd 5a bd 63 9b 9e bb e1 04 bf 3d b9 82 e1 bc
       -0.053464558 -0.004840301 0.093271025 -0.027528154
000230 36 f5 9f 3d da f1 09 3d 9c 76 53 3c 98 e9 02 be
       0.07810442 0.033677913 0.012906697 -0.12784421
000240 0d bb 26 bd 6e 5e c0 bd ac 5f 2e bd af ea 39 bd
       -0.04070573 -0.09393011 -0.04257171 -0.045389827
000250 46 9e ab bb 75 8a 4f bd b6 49 60 3e 92 e5 d5 3d
       -0.0052373735 -0.050669152 0.21903118 0.10444178
000260 d5 10 a3 bb 24 cf f0 3c 3f df 47 3d 86 ac 30 bd
       -0.004976372 0.029395647 0.04879689 -0.04313328
000270 48 1d 59 3d 4d e4 ff bd 88 b2 d1 bd d1 82 40 3d
       0.05300644 -0.12494717 -0.1023913 0.046999756
000280 80 d1 67 bd 15 59 06 bd bd 3c 3d bb de 5e 8d 3c
       -0.05659628 -0.0327998 -0.0028875314 0.01725715
000290 6e 31 49 bd 5c 70 24 3d fa bd db 3c 14 00 e5 3c
       -0.049119405 0.040146217 0.026823986 0.027954139
0002a0 90 1d 98 bd be 5e 5c 3d b9 c0 20 3c 1e 59 08 3e
       -0.074275136 0.05380129 0.009811574 0.13315246
0002b0 26 f8 bf 3c 8d 3d 01 3e 1c e4 0d bd 39 30 d5 bd
       0.023433756 0.12621136 -0.03464137 -0.10409588
0002c0 9c 1b 8e bc c1 2b d9 3d 5e 4e d6 bc b7 19 f1 bb
       -0.01734715 0.106040485 -0.026160415 -0.007357802
0002d0 b5 55 2c bd cc 85 be bd fc 27 83 bc f8 9c a3 bd
       -0.042073924 -0.093028635 -0.016010277 -0.07988924
0002e0 b5 55 95 bd 90 51 12 3d 70 39 cc 3c 11 18 12 bd
       -0.07291738 0.035722315 0.024929732 -0.035667483
0002f0 fe 5b bb 3a d8 60 0a bd 47 a7 d3 bb 93 ee 18 3c
       0.0014294384 -0.033783764 -0.00645915 0.009334224
000300 f8 ac 00 be c2 46 82 bc f9 30 28 bd fb 37 1a bc
       -0.12565982 -0.01590288 -0.04106233 -0.009412761
000310 26 c2 ba 3a a9 c3 cd 3b 3b 07 02 bc 1b da dc bd
       0.0014248535 0.006279428 -0.007936294 -0.10783788
000320 47 e9 08 3d 8b a9 53 bd eb cf 39 bd ae 6c 09 3e
       0.033425596 -0.05167536 -0.0453643 0.13420364
000330 ef 56 a0 3d 25 6d b1 3d a8 85 5e bd 65 41 81 3b
       0.07829081 0.08663396 -0.054326683 0.003944563
000340 26 4d a3 bd d9 65 49 bb 4e 89 9b 3c db 7a 40 3d
       -0.07973699 -0.0030730872 0.01898637 0.046992164
000350 23 65 6f bd 4b 19 01 be 36 75 6f 3e 26 c4 1b 3e
       -0.05844606 -0.12607305 0.23384556 0.15211543
000360 8e 3f 03 bd 2d da ae bd a2 87 bb 3c 9d 6b 14 3d
       -0.032043032 -0.085377075 0.022891823 0.03623544
000370 66 be 06 3d ff 25 df bd 35 22 3e 3c 98 f5 e8 3d
       0.03289642 -0.10895919 0.011604835 0.11374968
000380 01 31 fd bd b0 f2 1c 3e a8 a2 e9 bd 02 2e 7f bd
       -0.123628624 0.15326953 -0.11407977 -0.062299736
000390 c4 dc 1e be d7 66 19 3d d9 80 d7 3d c3 3a 29 bd
       -0.15513903 0.03745159 0.105226226 -0.041315805
0003a0 47 87 9a bd 32 5d 5a 3d b1 db a3 bc 88 90 33 3d
       -0.07545333 0.053311534 -0.020002218 0.043839008
0003b0 70 3d e1 3d d7 dd 48 bd 38 5e 7e bd 95 c2 0f 3d
       0.109980464 -0.049039688 -0.062101573 0.035097677
0003c0 54 5f f1 bd db d4 00 3e 88 54 bf bc 53 a6 8f bd
       -0.117857605 0.12581198 -0.023355737 -0.07014146
0003d0 a8 15 7d bd bb d7 7e 3d a3 21 f4 bc 14 25 1f bd
       -0.06178823 0.062217455 -0.029801195 -0.03885372
0003e0 92 d2 61 bd 33 7d d1 bd c0 53 53 3b 33 c9 b6 bd
       -0.055132456 -0.10228958 0.0032245964 -0.089250945
0003f0 bb 80 03 bd 1f 17 5c bc 76 75 84 3c fa 68 b5 bc
       -0.03210519 -0.013433247 0.016169291 -0.022144783

CNN/dense_1/BiasAdd/ReadVariableOp f4 [35]
000000 99 73 61 be 72 08 c7 3d 7c e6 24 bd 30 48 a1 bc
       -0.22016753 0.09718408 -0.04025887 -0.019687742
000010 0f 05 08 be 01 91 bc bd 75 79 ce 3a 77 22 88 bc
       -0.1328318 -0.09207345 0.001575275 -0.016617997
000020 c3 2d 0b be 5a 81 e7 bc b7 ce 1f 3e 07 67 3f 3e
       -0.13591675 -0.028259922 0.15606199 0.18691646
000030 27 43 90 bb 17 0c e6 bd 36 dc 36 bd 94 5b c2 bc
       -0.0044025364 -0.11232775 -0.044643603 -0.023725308
000040 71 bf 34 3d e7 18 1b 3d b0 7d de 3d e2 e2 45 3c
       0.044127885 0.037865546 0.10863817 0.012078019
000050 79 39 e1 3c 33 14 a3 3d e0 1a 40 bd 78 76 17 3e
       0.027493225 0.07962837 -0.04690063 0.14791286
000060 b3 34 3e be 5f 2b 0b 3e d0 22 55 bd ba 5d 7d 3d
       -0.1857479 0.13590764 -0.052035153 0.061856963
000070 5b 63 19 be 5b 71 00 bc 57 eb 2f 3e a2 38 f4 3c
       -0.14979307 -0.007839526 0.17179619 0.02981216
000080 d8 e2 c4 bd af f2 da bc 04 80 2b be
       -0.096135795 -0.026727049 -0.16748053

CNN/dense/BiasAdd/ReadVariableOp f4 [64]
000000 cc b3 c1 3d 0e 60 7f 3d ec f6 54 3d f7 60 7b 3d
       0.09458122 0.062347464 0.051993296 0.06137177
000010 f5 8c 9d bc fd 66 80 3d f1 c8 b8 3d 61 31 d4 bc
       -0.019232253 0.062696435 0.090227015 -0.025902452
000020 13 f9 b3 3d 67 2b cc 3d f2 f0 46 be 22 9a e6 3d
       0.087877415 0.09969216 -0.19427851 0.11259867
000030 90 b8 28 3d 16 10 82 bc 4f f3 3a 3e 86 fc cb 3d
       0.041191638 -0.015876811 0.18256877 0.099602744
000040 37 62 63 3d d9 cb 13 3e 0e a3 59 bd 37 1f a1 3c
       0.055513587 0.1443323 -0.053134017 0.019668205
000050 d7 ca 15 3e 39 5f 4e 3c b5 60 29 bc 14 19 14 bd
       0.14628159 0.012595945 -0.010337998 -0.03615673
000060 fd 88 91 3d 29 7a 3d bc 58 c9 58 bb 00 cf 1b 3e
       0.071062066 -0.01156477 -0.0033078995 0.15215683
000070 00 5a bd 3d 14 32 c6 bb 82 c0 1b 3e c3 69 1e bd
       0.09245682 -0.0060484502 0.15210155 -0.03867508
000080 97 1c 4e bb 04 a2 81 3d 5c b8 45 3d 45 20 1e 3d
       -0.0031450146 0.0632973 0.048271522 0.038604993
000090 70 cc 4d 3d 6f ae 22 bd 6c 1c ff bb ca e3 2b 3d
       0.050243795 -0.039717134 -0.0077853706 0.041965283
0000a0 e0 72 fb bc ee db a7 bb ed e3 0d 3e 02 b5 b4 3c
       -0.030694425 -0.005122653 0.13856478 0.022058968
0000b0 13 8e 0a 3e f4 8b 3d ba 29 f6 05 3d 2d ad 22 3e
       0.1353076 -0.00072306325 0.03270546 0.15886374
0000c0 5f e6 b3 3c fe 6f 0b be 7d 1c 92 3b 05 72 16 be
       0.021960435 -0.1361694 0.0044589625 -0.14691932
0000d0 73 77 93 bc 66 b3 bb 3d c2 c7 fd 3c 0f 83 be bd
       -0.018001294 0.09165077 0.030979041 -0.09302341
0000e0 66 7d ac 3d 5b 76 ef bc bb f0 b8 bd c8 51 f4 ba
       0.08422355 -0.029231241 -0.09030291 -0.0018640095
0000f0 26 81 62 bb 8c 27 5d bd 6e c4 93 3d 9b 07 02 bc
       -0.0034561842 -0.053992793 0.072152 -0.007936384

CNN/batch_normalization/FusedBatchNormV3 f4 [64]
000000 b5 22 dd 3e cc 4e 11 3f 7d 3c b4 3e 47 58 28 3f
       0.43190542 0.5676086 0.352024 0.657597
000010 e7 31 1b 3e a0 e9 2a 3e 00 de 33 3e 6d 31 9a 3e
       0.15155755 0.16690683 0.17565155 0.30115834
000020 a7 53 87 3e 79 11 fc 3e aa d6 03 3f ce db e1 3e
       0.2643101 0.4923208 0.51499426 0.4411301
000030 74 1f 3e 3e 80 95 ca 3e 9e cd 10 3f 72 47 d8 3d
       0.18566686 0.39567184 0.56563747 0.10560502
000040 41 6b 6d 3e d6 37 78 3e 6b 98 7a 3d 01 6b a1 3e
       0.23185445 0.2424005 0.061180513 0.3152695
000050 59 ff b3 3d 9e a8 82 3d ce 40 78 3e b0 4a 1c 3e
       0.08788938 0.063798174 0.24243471 0.15262866
000060 93 f0 9d 3e 45 59 01 3f ed ab c5 3e 03 41 ad 3d
       0.30847606 0.5052684 0.3860773 0.084596656
000070 5d 7a b4 3e 5e 04 1f 3f 94 ce 10 3e 84 be 1c 3f
       0.35249606 0.6211604 0.14141303 0.61228204
000080 b8 66 ef 3e 70 66 2f 3e 36 28 4d 3e 97 b0 43 3f
       0.46758056 0.1712892 0.2003487 0.7644133
000090 23 7f 72 3e 00 6b 14 3e 74 95 75 3e 2f 09 1f 3e
       0.23681311 0.14493942 0.23982793 0.15530847
0000a0 53 52 0c 3f c4 d5 d5 3e 56 af ab 3e 53 1e 0b 3f
       0.54813117 0.41764653 0.33532208 0.54343146
0000b0 d7 87 d2 3e 42 61 93 3e 3c b2 95 3e b3 7a c4 3e
       0.41119263 0.2878514 0.29237545 0.38374862
0000c0 62 45 74 3e cb c7 35 3e ea cc 09 3e eb 12 8a 3e
       0.23854592 0.17751996 0.13457075 0.26967558
0000d0 78 67 30 3e ae b9 b9 3e 00 c2 e2 3d 1a a9 b6 3e
       0.1722697 0.36274475 0.11072159 0.3567589
0000e0 af d3 0b 3e a2 d5 bd 3e 07 db b4 3e 9a 14 7c 3e
       0.1365497 0.3707705 0.35323355 0.24617234
0000f0 58 67 7a 3e 1f f8 b3 3d 6e 84 09 3f 0a 03 3d 3e
       0.24453485 0.0878756 0.53717697 0.1845819

CNN/batch_normalization/FusedBatchNormV31 f4 [64]
000000 60 46 25 bf 8c 12 01 bf 3b 37 f7 be 5d f7 06 bf
       -0.6456051 -0.50418925 -0.48284325 -0.52721196
000010 ac c3 07 bf f2 38 04 bf 9f 9b f8 be 0f 30 08 bf
       -0.53032947 -0.5164939 -0.4855623 -0.5319833
000020 88 49 f3 be 27 10 e5 be 7c 0c 15 bf b9 9a d3 be
       -0.47517037 -0.44738886 -0.58222175 -0.41328982
000030 2e 59 dd be 83 59 f4 be b4 98 e2 be 52 fc 00 bf
       -0.432321 -0.47724542 -0.44257128 -0.5038501
000040 56 5e f9 be 3b 68 0b bf 8a 85 b7 be ae 6b 03 bf
       -0.48704785 -0.5445592 -0.3584407 -0.5133618
000050 13 8b 05 bf 3c 43 ed be d0 37 f0 be 1f 89 d0 be
       -0.52165335 -0.46340358 -0.46917582 -0.40729615
000060 b7 e8 e3 be 90 6f e3 be 83 5c f1 be bc 9c d8 be
       -0.44513485 -0.44421053 -0.47140893 -0.4230708
000070 22 a2 e1 be 57 85 e1 be 9e 70 22 bf b5 3a 09 bf
       -0.4406901 -0.44047043 -0.6345309 -0.53605205
000080 0c c5 eb be 2a 04 e6 be 41 06 13 bf 72 7d 02 bf
       -0.46048772 -0.44925052 -0.5743142 -0.50972664
000090 6c 77 16 bf f9 ed c9 be 7b 8e 0a bf 8a 67 f7 be
       -0.58775973 -0.3943937 -0.5412366 -0.48321182
0000a0 ce f5 01 bf 5c a6 f4 be 5a be ec be 8c 6c 05 bf
       -0.50765693 -0.47783172 -0.46238977 -0.52118754
0000b0 52 56 1a bf 28 be f4 be f4 f4 1d bf aa a1 ea be
       -0.60287964 -0.47801328 -0.61701894 -0.45826465
0000c0 37 cd 03 bf 1d af f4 be b0 d5 b6 be 26 48 fa be
       -0.5148501 -0.4778985 -0.35709906 -0.4888317
0000d0 9e 5e 15 bf ed af 10 bf 99 cc d9 be ea f6 05 bf
       -0.583475 -0.5651844 -0.42538908 -0.52329886
0000e0 dc 2f c8 be c1 12 0f bf 30 bd 01 bf 2e 11 0c bf
       -0.39099014 -0.5588799 -0.506793 -0.54713714
0000f0 03 63 fb be 45 b2 de be fb ad 0f bf 44 62 0b bf
       -0.49098977 -0.43495384 -0.5612485 -0.54446816

CNN/batch_normalization_1/FusedBatchNormV3 f4 [32]
000000 da 9e 8b 3f 1b 84 b4 3f 26 9d 7c 3f bb 8e 6a 3f
       1.0907853 1.4102815 0.9867729 0.9162404
000010 47 e6 9b 3f 04 e4 a6 3f 42 1a 05 40 81 7c 9c 3f
       1.217965 1.3038335 2.0797276 1.2225496
000020 49 5d be 3f 40 91 c8 3f d0 c9 b7 3f 7b 1d a4 3f
       1.4872218 1.5669327 1.4358463 1.2821497
000030 ec 61 61 3f 12 81 99 3f 1d 17 8d 3f 33 16 90 3f
       0.8804004 1.1992514 1.1022679 1.1256775
000040 ab 69 9a 3f 4e 53 a3 3f d4 90 82 3f 76 8a 99 3f
       1.2063497 1.2759798 1.0200448 1.199538
000050 de 41 7e 3f ff 61 6d 3f 19 ca 67 3f 98 3e 87 3f
       0.99319255 0.92727655 0.9054275 1.0565977
000060 a3 63 a1 3f a5 24 9c 3f 6d e4 c4 3f 33 81 5d 3f
       1.2608532 1.2198683 1.538221 0.8652527
000070 13 55 af 3f 49 22 4a 3f 25 b3 b0 3f bb a8 b4 3f
       1.3697838 0.78958565 1.380467 1.4113992

CNN/batch_normalization_1/FusedBatchNormV31 f4 [32]
000000 bc 88 dd be b0 9b 2c bf d2 ee 1c bf 47 85 54 bf
       -0.43268383 -0.6742506 -0.6130191 -0.83015865
000010 bd d6 21 bf 75 4f 14 bf 5a 78 59 be a4 d1 3d bf
       -0.6321829 -0.5793374 -0.21237317 -0.7414801
000020 fb a7 98 be ad 9b 99 be ab 2f fb be 8f c3 1c bf
       -0.2981566 -0.30001584 -0.49059805 -0.612359
000030 74 ed 0e bf 18 e9 4a bf 61 a0 40 bf bd 72 46 bf
       -0.55831075 -0.7926192 -0.7524472 -0.77518827
000040 e1 a6 15 bf dc 03 33 bf 11 25 b1 be e2 be 49 bf
       -0.5845776 -0.69927764 -0.34598592 -0.7880689
000050 63 2a 38 bf 2f 63 c9 be d2 61 2d bf 3c e3 2a bf
       -0.71939677 -0.39333484 -0.67727387 -0.6675298
000060 61 28 48 bf 57 02 d7 be fa 6e 08 bf ee 65 59 bf
       -0.78186613 -0.41993973 -0.53294337 -0.8492116
000070 8d f7 20 bf 40 e3 07 bf b8 4a 2f bf af ad 3f bf
       -0.6287773 -0.5308113 -0.68473387 -0.74874395

CNN/batch_normalization_2/FusedBatchNormV3 f4 [32]
000000 aa ee da 3f 3c c9 2e 40 56 33 36 40 34 23 9e 41
       1.7104084 2.7310324 2.8468833 19.767189
000010 24 6e 31 40 01 1d fb 3f 06 7a 09 40 bb 3a 3e 40
       2.7723475 1.9618226 2.1480727 2.9723346
000020 be 00 1f 40 e0 a4 89 40 f6 ba 2f 40 c0 77 54 40
       2.4844203 4.3013763 2.7457862 3.319809
000030 a0 5c 50 40 e1 fa fe 3f 96 a5 22 40 5c 10 21 40
       3.2556534 1.9920312 2.5413566 2.5166235
000040 80 7b 07 40 05 f2 ca 3f cc 61 4d 40 34 36 4c 40
       2.1169128 1.5855108 3.209094 3.1908083
000050 76 84 cc 3f 54 d1 15 40 f9 ea 14 40 e8 93 0f 40
       1.5977924 2.3409014 2.3268416 2.2434025
000060 11 72 df 41 a5 79 e3 3f 8c 4b 06 40 36 48 d8 3f
       27.930696 1.7771498 2.098361 1.6897037
000070 42 63 03 40 83 df 0d 40 9a 36 f8 3f cd 42 64 40
       2.0529332 2.216767 1.9391663 3.5665772

CNN/batch_normalization_2/FusedBatchNormV31 f4 [32]
000000 24 30 25 bf c0 7f f8 be 58 c6 08 bf d2 36 2d be
       -0.6452658 -0.48534966 -0.5342765 -0.16915444
000010 9a 66 e1 be 26 cd fe be cd 43 c0 be ae c2 00 bf
       -0.4402359 -0.4976589 -0.37551728 -0.5029706
000020 87 b4 01 bf 99 91 bd be 0a c6 d7 be 33 c6 a6 be
       -0.5066609 -0.37025145 -0.4214328 -0.3257309
000030 f0 a7 d5 be 22 1f 24 bf 27 59 17 bf 16 ae 0c bf
       -0.4172969 -0.64110005 -0.5912041 -0.54953134
000040 ac f2 23 bf 88 36 18 bf 35 27 88 be d9 2e fc be
       -0.6404216 -0.5945821 -0.26592413 -0.49254492
000050 88 ac 4b bf 01 ed 18 bf f0 38 a5 be 49 8a ca be
       -0.79560137 -0.5973664 -0.32270002 -0.39558628
000060 1a 1b 32 3e bd b7 0b bf 4b eb 1b bf 37 75 29 bf
       0.17393151 -0.5457724 -0.60905904 -0.6619448
000070 3b 69 25 bf 8b 31 2a bf 2c 9d 54 bf 24 6b e8 be
       -0.64613694 -0.66481847 -0.83052325 -0.45394242

CNN/dense/MatMul f4 [64, 96]
000000 49 cb 62 be 77 ef b9 3d 67 5c b7 bd fd 39 84 3d
       -0.2214786 0.090788774 -0.08953171 0.06456373
000010 81 fb 25 3d 26 51 0b be 73 a7 17 3d f5 f5 20 3e
       0.040523056 -0.13605174 0.037024926 0.15718825
000020 26 98 d1 3d 3a be 94 bd 5e 01 88 bd 70 d7 de 3c
       0.10234098 -0.07262845 -0.06640886 0.027202338
000030 88 df d1 3d fb 5e 89 bd c9 1b 29 3e fb 63 42 be
       0.10247713 -0.06707569 0.16514505 -0.18983452
000040 da 88 2c bd 07 4c 2a be 0a 33 45 3e 59 5b cd bd
       -0.0421227 -0.16630565 0.19257751 -0.10027189
000050 a9 a5 09 be 8a 83 4c bd b1 97 43 3e 62 ed 22 3d
       -0.134421 -0.049930133 0.19100834 0.039777167
000060 83 86 2d bd cb a4 9d bc 07 a9 01 bf 1b 14 e7 bd
       -0.04236461 -0.019243618 -0.5064854 -0.11283132
000070 53 b4 9f 3e 3e f8 24 3d a7 dc 8d bd 1d 9d b6 3d
       0.31192264 0.040275805 -0.06926852 0.08916686
000080 f7 4e b2 bd 49 72 0c 3e 3f ce 3f bd ee 0e 41 bc
       -0.087064676 0.13715471 -0.04682755 -0.011783345
000090 64 03 d9 bc c7 5d e3 bd 14 9d c5 b9 90 6f d5 3d
       -0.026490875 -0.11101871 -0.000376918 0.104216695
0000a0 95 05 2f 3e f5 74 01 3e 37 7b b4 bd 85 a1 d2 3d
       0.17091973 0.12642272 -0.08812564 0.10284714
0000b0 d0 5f e1 3d 4c 5c 9e be 3d 8b a2 3e 00 00 3c bd
       0.11004603 -0.30929792 0.31746855 -0.045898438
0000c0 ad ca 82 3d b6 0b bf bd 8b c4 e4 3d 4b c4 5e bd
       0.063863136 -0.093284056 0.111703 -0.05438642
0000d0 c6 c8 3a 3d 31 85 a4 bd c3 5a 4c bd 0a 4c 13 bc
       0.04560163 -0.08033217 -0.049891245 -0.008990297
0000e0 cb f7 ed 3d c2 7d 0e 3d 6e 70 ba be 9b 20 10 bd
       0.116195284 0.0347879 -0.36413902 -0.035187345
0000f0 b0 bc ad 3e cd b6 01 3d 64 7c cb 3d a5 c7 c7 3d
       0.3393302 0.031668473 0.09935835 0.09754876
000100 64 ac 90 be 3d 54 1a 3e 0b 1e 59 bd 8b cf 5f 3c
       -0.28256524 0.15071197 -0.053007167 0.013660322
000110 58 37 c0 3d a7 e4 08 3e e9 98 bb bd ca 41 14 3e
       0.09385556 0.13368474 -0.09160025 0.14478222
000120 42 f2 29 3e ca e1 b5 3d 38 2f 60 bd 37 1d 09 3e
       0.1659632 0.088809565 -0.05473253 0.13390051
000130 35 67 50 3e 10 c3 c8 be e5 d2 63 3e 3f e7 5d bc
       0.2035187 -0.3921132 0.22248419 -0.013543903
000140 d2 3f 08 3c 0d 3e f1 bd a5 5e 51 3c 71 09 c0 3b
       0.008315997 -0.11779413 0.012778913 0.0058605005
000150 22 3d 30 be fe 11 37 be 8a 75 40 bd a6 86 d1 3d
       -0.1721082 -0.17877957 -0.046987094 0.1023076
000160 12 b6 54 3e b9 1a 1d bd 6d 57 4c be 9f b4 8f 3d
       0.2077258 -0.038355563 -0.19955225 0.070168726
000170 17 e7 ad 3e 3f c6 06 bc 95 d9 a8 3c 7b fb d3 3d
       0.3396537 -0.0082259765 0.020611564 0.103507005
000180 76 5a 41 3e ce c2 8e be 9e 7d 68 bd 0a bd 26 3e
       0.18882164 -0.27883 -0.056760423 0.1628305
000190 ff 8d 06 3e 07 bf 26 bd 5e f0 fc bc c7 90 18 3e
       0.13140105 -0.04070952 -0.030876335 0.14898978
0001a0 4a 5a 25 3e 11 be 07 3d 1b 93 8f 3d ee ee 53 3d
       0.16147724 0.033140246 0.0701048 0.051741533
0001b0 10 78 21 be 12 cd 88 bc f5 81 7f 3d 85 70 27 3d
       -0.15768456 -0.016699348 0.062379796 0.04087879
0001c0 94 fe 25 3d 9d c5 6d bd a7 65 ad 3d 4d f1 94 3d
       0.040525988 -0.058049787 0.08466654 0.07272587
0001d0 a6 f9 0c bb ef 75 c4 bc 70 f8 1d 3e 00 f1 9d 3d
       -0.0021511107 -0.023982016 0.15426803 0.07711983
0001e0 d6 35 19 3d 8b 41 68 3e 80 f9 bc bd 5d 5d 6f bc
       0.037404858 0.22681253 -0.09227276 -0.014609662
0001f0 f7 42 82 be ea ae 75 3e 89 2b 18 3c c4 1c 40 3c
       -0.25441715 0.23992506 0.009287723 0.011725608
000200 78 fa 64 3d 52 44 bc be 8b 87 23 be 54 9b 07 3e
       0.055902928 -0.36770874 -0.15969674 0.13242847
000210 d7 87 2a 3e f3 de 23 bd 54 9b 22 bd f9 f2 e8 3c
       0.16653381 -0.040007543 -0.039698914 0.02843617
000220 54 05 27 3d 1c 81 56 3d 0d 41 68 3d 0d 38 5b 3e
       0.040776566 0.052369222 0.056702662 0.214081
000230 8d d3 e6 bd 5d c2 fe bd c5 15 28 3d 91 93 64 bd
       -0.11270819 -0.124394156 0.041036386 -0.055804793
000240 a9 52 7e 3d d4 9b c0 3d f7 f4 04 3e 52 b1 63 3e
       0.06209055 0.09404722 0.12984072 0.22235611
000250 6a 32 99 bd 7e 4f c7 bd da 86 ac 3d c1 71 95 3d
       -0.07480319 -0.09731959 0.084241584 0.072970875
000260 46 9e f8 3d 6c 25 61 3e bf 40 be bd 56 cb 30 3e
       0.12139563 0.21986932 -0.09289693 0.17265067
000270 5b ba b5 be 96 61 35 3d f8 38 04 3e b5 54 ff bd
       -0.3549374 0.04428252 0.12912357 -0.124673285
000280 67 75 3e 3e 0d 0f 37 be f1 a5 88 bd 67 f5 ff bd
       0.18599473 -0.17876835 -0.06672276 -0.12497979
000290 8d fb da 3d b7 c3 d0 3c dc f2 80 bb e6 aa c2 bb
       0.10692511 0.02548395 -0.003935201 -0.005940783
0002a0 52 62 69 3e dd 28 ac bc e0 04 a8 3d 79 37 52 3e
       0.22791412 -0.021015579 0.08204055 0.20528974
0002b0 d2 29 8e 3c fb 8a a6 bd 83 f5 ce 3d 6f 54 07 be
       0.017353926 -0.08131977 0.101054214 -0.13215803
0002c0 bd 1b 09 3e e2 77 e7 bd e6 f8 66 bc 15 54 48 3d
       0.13389488 -0.11302163 -0.014097428 0.048908312
0002d0 3a e6 a3 bd 36 65 9c bd 2a f1 f3 3d 51 ec 24 3e
       -0.080028966 -0.07636492 0.11911233 0.16105773
0002e0 82 29 45 3e 17 02 44 3e fe 68 02 be c5 f3 fd bd
       0.19254115 0.19141422 -0.12735364 -0.12400011
0002f0 52 27 c2 be 00 21 83 3e 74 ec 31 3e 92 1b 9f bd
       -0.37920624 0.25611115 0.17375356 -0.077689305
000300 75 a9 8d 3d 3d 76 67 bd 22 33 c9 3d 0a e8 0e 3e
       0.06917087 -0.056509245 0.09824206 0.13955703
000310 65 41 aa 3e 1b 9a a0 bd ad 77 45 3e 0e 26 96 bb
       0.33253017 -0.07841893 0.19283934 -0.004582173
000320 c4 53 88 3e fe 66 18 3e 38 0d b4 bd d5 61 b4 3d
       0.26626408 0.14883038 -0.08791584 0.088077225
000330 8e ca a7 bd d3 3b 66 bd 68 5b ee bd be ac 26 3d
       -0.08192931 -0.056209397 -0.11638528 0.040692084
000340 24 8d 04 be 9a 19 46 bd 9c 7a 42 3e 67 bd f9 3d
       -0.12944466 -0.04836426 0.18992084 0.12194329
000350 e4 52 35 3e d8 83 83 3d 84 73 11 be e3 dd 28 3e
       0.17707402 0.064216316 -0.14204222 0.16490893
000360 57 29 03 3e 76 4f d1 bd 31 0a 1a 3d db 47 e8 bd
       0.12808739 -0.10220234 0.037607376 -0.1134183
000370 0e a5 fd bd cc d2 5e be 1c 19 43 bd 11 12 c0 bd
       -0.12384997 -0.217601 -0.047631368 -0.09378446
000380 73 57 5a 3e 1b cb ad 3d 23 3c fd bc 26 9c c4 bd
       0.21322422 0.08486005 -0.030912464 -0.096000955
000390 14 df 78 3e bc ee 0e be 03 ee 12 3e 16 98 bd bd
       0.24303848 -0.13958257 0.14348607 -0.09257524
0003a0 86 fb ad 3d 6a c7 a9 3d 14 cd 5e be 43 7d 77 3d
       0.0849524 0.08289988 -0.21757919 0.060422193
0003b0 4e b0 46 3c 4a bd 4c 3d f5 06 eb 3c da 21 3b 3c
       0.012126995 0.049985208 0.02868984 0.011421645
0003c0 88 98 cb 3c e0 2b 80 be f2 c2 7f 3e ce 0f 28 3e
       0.024853006 -0.25033474 0.2497671 0.16412279
0003d0 8b f6 b1 3d 80 43 15 3e fb 12 64 bd 94 03 7c 3e
       0.086896025 0.1457653 -0.055682164 0.2461074
0003e0 76 b4 19 3e 50 6c 96 3d cd dd c7 3d 98 74 0c be
       0.15010247 0.07344878 0.09759102 -0.13716352
0003f0 02 88 99 bd 63 80 0f be e9 5f c5 3d 9e c0 8e bd
       -0.074966446 -0.1401382 0.09637434 -0.069703326

CNN/dense_1/MatMul f4 [35, 64]
000000 e7 5b 3a 3d 5c 95 f2 3d cd 53 38 3e 06 34 58 be
       0.0454978 0.11844894 0.18000717 -0.21113595
000010 f0 08 a9 be 82 54 21 3e e1 7e 80 3d ff a6 64 bd
       -0.3301463 0.15754893 0.062742 -0.055823322
000020 18 c0 a7 3d c6 ea eb bd 9b 09 9e 3e 13 3c 8c be
       0.08190936 -0.11519389 0.30866703 -0.27389583
000030 16 bc 44 3e eb 77 44 3e 97 fd e5 be d9 e2 7d be
       0.19212374 0.1918637 -0.44920036 -0.24793567
000040 ef 3c 34 be 0c 84 9f be 3d 06 b9 bc fd a2 45 be
       -0.1760137 -0.3115543 -0.022585982 -0.19300456
000050 34 31 9a be 4d e8 10 bf 3c 34 ef 3c 6e 84 a3 be
       -0.30115664 -0.5660446 0.029199712 -0.31936973
000060 18 e1 1a be 9f b2 9a be 70 2c 47 3e 55 30 0c 3e
       -0.15124929 -0.30214402 0.19450545 0.13690312
000070 6f 16 b8 be 0d 9e 2a 3e f8 56 72 bd d3 7e 05 bf
       -0.35954615 0.16661854 -0.05916497 -0.52146643
000080 57 ed 93 3c 84 6a 8e bd 0f 31 7a bd 86 80 36 3d
       0.018057508 -0.0695391 -0.061081942 0.044556163
000090 e0 2f 68 bd 71 c1 80 bd 20 e8 84 3e 37 66 46 be
       -0.056686282 -0.06286896 0.25958347 -0.1937493
0000a0 ed c5 5a bb bb f7 34 bb 89 ea c6 be e4 10 88 3e
       -0.0033382133 -0.002761348 -0.3885081 0.26575387
0000b0 cb 39 2a 3e 16 2e 24 3e 6c ff 46 be a1 1a c0 3d
       0.16623609 0.16033205 -0.19433373 0.09380079
0000c0 b7 9a 84 3e 98 86 89 be ca b3 da bd 28 07 8f 3e
       0.25899288 -0.268605 -0.10678823 0.27935147
0000d0 5a 4a 7f be a9 47 a2 3d d4 7a 02 bc bd 8f 13 3e
       -0.24930707 0.07923824 -0.007963855 0.144103
0000e0 64 07 6d bd e9 cb 0e be 22 11 38 be 25 8c 67 3d
       -0.057868376 -0.13944973 -0.17975286 0.056530137
0000f0 ea e7 dc be 61 51 98 bd 53 a3 e6 be 6f 7f 57 3e
       -0.43145686 -0.07437397 -0.45046481 0.21044706
000100 2a 6b c5 bc 80 dc 0c bd a8 93 f6 bd 28 49 08 be
       -0.024098951 -0.034389973 -0.12039882 -0.13309157
000110 d3 1d 81 be da 9b cf bd ec f3 ac be 24 cc d2 be
       -0.25218067 -0.10137148 -0.33779848 -0.41171372
000120 01 8a 80 3e 79 74 d0 bc a2 e8 a4 3d 5b 1a 58 3e
       0.2510529 -0.025446163 0.08052184 0.21103804
000130 f5 2f 34 3e 94 ba b8 be 97 af bf be 67 bc db bc
       0.17596419 -0.36079848 -0.37438652 -0.026823236
000140 33 11 04 3e bb 16 8b be 4f 0e 6a 3d 75 a2 e5 be
       0.12897186 -0.2716578 0.057142552 -0.44850507
000150 b0 fa 6b be c8 78 e1 3c 0c d7 9b 3d 9e 93 49 3e
       -0.23044848 0.027523413 0.07609376 0.19685218
000160 73 34 13 bd 7d f1 88 be a8 14 f8 bd 56 ea 93 3c
       -0.03593869 -0.2674674 -0.12113315 0.018056076
000170 e4 e1 b8 3d 50 c9 75 bd f6 27 82 be d7 0d 15 be
       0.0902746 -0.06000644 -0.25421113 -0.1455606
000180 4a f5 1b be 87 a5 61 be 53 13 95 3d c9 1c 89 3e
       -0.15230289 -0.220358 0.072790764 0.26779774
000190 45 58 0e bc f6 53 14 3d dc 4a 87 3e 85 86 9d 3b
       -0.008688037 0.036212884 0.264243 0.0048072957
0001a0 b3 c8 b3 bd 59 46 f5 3d 53 51 3c be 84 5f 2c 3e
       -0.08778515 0.119763084 -0.18390398 0.16833311
0001b0 ab de 0b 3e cb 97 7a bd 97 a2 d7 3c 5f 4e 1e be
       0.1365916 -0.061179917 0.026322646 -0.15459584
0001c0 64 69 a3 be 29 f5 6f be e6 c1 2e 3e a6 98 16 3d
       -0.31916344 -0.23433365 0.17066154 0.03676667
0001d0 19 41 3d 3e 0a d1 86 be 68 22 43 be 0b 0b 77 3e
       0.18481864 -0.2633136 -0.19056094 0.24125306
0001e0 65 a0 79 3e 36 a3 f3 3c 43 7b d7 bd 4e a7 16 3e
       0.24377592 0.029740911 -0.10521557 0.14712259
0001f0 3f cf 96 be 6c 8e aa 3d 79 18 1f be ef b8 ae be
       -0.2945499 0.08327946 -0.1553668 -0.34125468
000200 c5 24 3d 3e 9b c4 84 be d3 e2 ec bd 5b 5a 64 3d
       0.18471058 -0.25931248 -0.11566701 0.055750232
000210 5f 60 d3 be 36 cc 01 3d c7 37 4d 3e 2c 54 74 3d
       -0.41284463 0.03168889 0.20040809 0.059650585
000220 af 97 0f 3e de f2 98 bd ae c6 92 3d 67 36 56 be
       0.14022706 -0.07468198 0.071668014 -0.2091919
000230 bd ba a2 3c 1f 8f aa be 0f 04 f7 be de a1 3a be
       0.019864434 -0.33312318 -0.48245284 -0.1822581
000240 2e 5e e3 bb 8b c9 ae bd 09 2f df 3d 5a dc ee bd
       -0.0069387173 -0.08534535 0.10897643 -0.116631225
000250 44 fb 18 3e 92 db b2 be 3d e4 2c 3e ac d5 6b 3d
       0.149396 -0.34933144 0.16883941 0.05757682
000260 16 63 47 3d b4 7d 04 be dc 4c 51 bd 8a 33 d5 3d
       0.04867848 -0.12938577 -0.05109869 0.10410221
000270 f9 1e 94 3d 40 7a 8b 3d 83 67 a3 be 68 8a 0a 3e
       0.0723247 0.06810427 -0.3191491 0.1352936
000280 7e 00 01 3e e1 5e d2 be a3 ae 52 3d f4 44 2b 3e
       0.12597844 -0.41088012 0.051436078 0.16725522
000290 43 9e d2 bc 7e 9a cb 3d 54 e5 d2 3c ca 91 77 bd
       -0.02571023 0.099415764 0.025744118 -0.06044177
0002a0 5a 2c 35 be f4 2c 0b 3e f2 a2 89 be 56 63 81 3e
       -0.176927 0.13591367 -0.2688213 0.252711
0002b0 1b c0 e2 3b fa 68 12 be 64 b2 4a be f8 9b e9 3d
       0.0069198734 -0.14297858 -0.19794613 0.11406702
0002c0 4d 46 55 be ef 88 b8 be dc 23 80 3d ca de 91 bd
       -0.20827599 -0.36041972 0.0625684 -0.07122572
0002d0 2b 4e 5f 3e f2 87 8d be 9a 70 9a be 31 59 15 bd
       0.21807162 -0.2764278 -0.30164033 -0.036462013
0002e0 41 34 3c 3e 54 f8 87 be dc 06 6e be 18 ae 80 3e
       0.18379308 -0.26556647 -0.23244804 0.25132823
0002f0 8a f7 94 be 05 e9 55 3e 7c 87 c1 be 01 b9 e5 3d
       -0.29095107 0.20889671 -0.3779868 0.11216927
000300 0c b4 b5 be a1 3e 16 3e a9 52 34 be d2 03 3d 3d
       -0.35488927 0.14672329 -0.17609657 0.04614622
000310 2c 0f 3f 3e 89 90 ab 3d ee 77 99 be 24 ed ab bc
       0.18658131 0.08377177 -0.29974312 -0.0209871
000320 7e 33 e3 3b a0 17 11 3d c0 58 17 3e f7 50 23 3e
       0.0069336286 0.03542292 0.14779949 0.15948854
000330 21 0a 12 3e 90 7f c3 be 40 fe 86 be 98 de 71 3e
       0.14261676 -0.3818326 -0.26365852 0.23620069
000340 46 17 88 be d9 08 cd be ac f6 cc be 09 d2 eb be
       -0.26580256 -0.40045813 -0.40031946 -0.46058682
000350 df 45 12 3e 25 46 ad be a5 37 e5 bd 08 d8 43 be
       0.14284466 -0.3384258 -0.11192254 -0.19125378
000360 2a 56 b8 be ab 7a f7 bd cc 52 07 be 71 e2 dc be
       -0.36003238 -0.12083944 -0.13215178 -0.4314151
000370 a0 5b 1f 3d 4c 10 8d bb c3 12 24 bd db b0 1c 3e
       0.03890574 -0.0043049213 -0.040056955 0.1530184
000380 c1 71 25 bd a1 12 55 3e 48 c9 59 3d 25 cb eb 3d
       -0.040391687 0.20807888 0.053170472 0.11513356
000390 b7 6d 00 3e e9 97 07 be 03 f4 87 be bf 1b 20 3e
       0.12541853 -0.13241543 -0.26553354 0.15635584
0003a0 21 c5 83 be 53 33 24 3e 60 a3 8b 3e f7 83 19 be
       -0.25736335 0.16035204 0.27273083 -0.14991747
0003b0 5a df 9c 3d 08 e8 4e bd 38 ed 10 3e 3b 58 7a bd
       0.076597884 -0.05051425 0.14152992 -0.0611193
0003c0 b5 84 dd be 2c dd 1d be 4c 24 42 be df 05 05 3e
       -0.4326531 -0.15416402 -0.18959159 0.12990521
0003d0 e2 e5 11 3e 1e e4 4f 3e ba 5b 51 3e f3 2c 31 3e
       0.1424785 0.20301864 0.20445147 0.17302303
0003e0 b0 57 05 3e cd 69 97 be c0 1f 90 be f1 29 96 be
       0.13021731 -0.29572907 -0.28149223 -0.29328874
0003f0 85 7d a6 be e1 ce 6d be 19 a5 4b be 7d 6d b2 be
       -0.3251764 -0.2322345 -0.19887199 -0.34849158
